moadel.tflite (tflite, 454156 bytes, 12 tensors)

sequential_2/dense_16/BiasAdd/ReadVariableOp;sequential_2/dense_16/BiasAdd/ReadVariableOp f4 [10]
000000 86 2e 17 3c a9 ac 55 bc f6 65 c8 3c d0 ba 51 bb
       0.009227401 -0.013041654 0.024462681 -0.0032002218
000010 18 6d c7 bc c8 5f e9 3c 92 9f 6f ba 13 cb 3b 3c
       -0.024344012 0.028488055 -0.00091409043 0.011461991
000020 59 96 ac 3c b1 0e 65 bd
       0.021067785 -0.055922214

sequential_2/dense_15/BiasAdd/ReadVariableOp;sequential_2/dense_15/BiasAdd/ReadVariableOp f4 [32]
000000 a5 32 e6 3c 89 dd d0 bb 00 00 00 00 47 79 39 bc
       0.028100321 -0.0063740653 0.0 -0.011320419
000010 d2 8e 05 39 40 c9 c4 bb 70 2e 94 bb fd 3e f8 bc
       0.00012737073 -0.006005436 -0.0045221373 -0.030303473
000020 15 8c fd bb af 9c 91 3d 63 75 bb 3c 00 00 00 00
       -0.0077376463 0.07109963 0.022883123 0.0
000030 5d 0f 38 bd 2a fa c6 bb 7c f4 65 3a c1 bc c4 3b
       -0.044936527 -0.0060723023 0.0008772088 0.0060039465
000040 9a fb a4 bb 1a a7 9f bb 33 c9 c4 bb 48 fd 3b bb
       -0.005034876 -0.004872215 -0.00600543 -0.0028684903
000050 da 60 31 bc d7 e0 1b bc 58 19 b6 bb e2 b4 22 ba
       -0.010826314 -0.009514055 -0.0055572204 -0.0006206763
000060 ac fc 34 3c a4 15 ac 3a 0d 99 17 3b 00 00 00 00
       0.01104657 0.0013129008 0.0023131997 0.0
000070 a2 10 ca bb 5a 48 fb b9 f7 ce 8e 3b db ff 1b bd
       -0.0061665336 -0.00047928357 0.004358168 -0.0380858

sequential_2/dense_14/BiasAdd/ReadVariableOp;sequential_2/dense_14/BiasAdd/ReadVariableOp f4 [64]
000000 00 00 00 00 05 c9 0b bc e4 af c4 bb df 24 46 ba
       0.0 -0.0085318135 -0.006002413 -0.0007558595
000010 00 00 00 00 6b ed 1e bc dd 86 a2 bb 06 ea 64 ae
       0.0 -0.00970016 -0.0049599246 -5.2049053e-11
000020 38 6e e4 ba 4d 40 9c 3c d9 5d 98 bb b9 f8 cb bb
       -0.0017427867 0.01907363 -0.0046498594 -0.0062247184
000030 de 10 82 3a 5a 22 0a bc 48 fe e1 bb 10 22 bb b9
       0.000992324 -0.008431042 -0.0068967678 -0.00035692798
000040 64 53 b8 bc 7a 40 bf bb ea 94 08 bc 00 00 00 00
       -0.022500701 -0.0058365436 -0.008336285 0.0
000050 24 2a ba bb de f2 c5 ba 07 c5 4c bb e4 7e ae bb
       -0.005681293 -0.0015102287 -0.0031245367 -0.005325185
000060 00 00 00 00 35 12 06 bb cd 66 4f 3c 7b 7f 01 bd
       0.0 -0.002045763 0.012658787 -0.031615715
000070 33 b1 29 3d 48 44 88 bb 02 3b 9e bb 92 89 8f bc
       0.041428756 -0.0041585304 -0.0048288116 -0.017521653
000080 54 9c a6 bb 00 00 00 00 a8 c9 c4 bb be 0f c5 bb
       -0.0050845537 0.0 -0.0060054846 -0.0060138395
000090 67 52 a0 bb 7f d0 d5 b9 00 00 00 00 97 8e 58 bb
       -0.0048926356 -0.00040781868 0.0 -0.0033043975
0000a0 d1 87 ca 3b 6e a7 08 bc 7a 7f 89 bb 2b e5 c7 3b
       0.0061807414 -0.0083407 -0.0041961046 0.006100317
0000b0 46 be 40 bc b2 dd 27 bc 26 89 bf bb 84 c6 98 bb
       -0.011764115 -0.010245727 -0.005845207 -0.004662337
0000c0 82 e8 cf ba 42 1f f9 ba 61 3c 04 bc db 71 b4 bb
       -0.0015862139 -0.0019006508 -0.008071036 -0.0055067367
0000d0 17 43 aa bb 03 93 93 bc 39 a9 b0 bc 06 f6 42 bb
       -0.005195986 -0.018014437 -0.021565067 -0.0029748692
0000e0 dc 98 ac bb fa ad 83 bb 51 37 5f 3b 90 c4 46 bb
       -0.0052672457 -0.0040185424 0.003406007 -0.0030329563
0000f0 82 04 3a bb 00 00 00 00 b8 07 3e bb f8 c1 49 3c
       -0.0028384035 0.0 -0.00289963 0.012314312

sequential_2/dense_13/BiasAdd/ReadVariableOp;sequential_2/dense_13/BiasAdd/ReadVariableOp f4 [512]
000000 00 00 00 00 3f 51 2f bb 00 00 00 00 1e 69 c4 3c
       0.0 -0.0026751307 0.0 0.023975905
000010 e7 df 17 3d c2 a4 f8 3c c9 a9 21 3c be d2 53 bb
       0.037078764 0.030352 0.00986714 -0.0032321657
000020 12 ac 3a bb 15 7a ba bb 0e 0a cc bb 1c cb 71 b9
       -0.002848391 -0.005690823 -0.0062267845 -0.00023059215
000030 e3 25 ad bb 6e ce a8 bb 05 cc 15 3d e8 f0 a3 bc
       -0.0052840575 -0.0051515615 0.03657152 -0.020012334
000040 2c c9 b0 bb 92 41 a0 bb 19 7c 9a bb 8b e7 e0 bc
       -0.0053950753 -0.004890629 -0.0047145006 -0.027454158
000050 25 06 11 bc 00 00 00 00 ee 5c e7 bc a9 20 e9 bc
       -0.008851563 0.0 -0.028242555 -0.028457956
000060 00 00 00 00 10 86 a5 bb 38 25 97 bc db 00 48 3b
       0.0 -0.005051382 -0.018450364 0.0030518088
000070 65 24 c4 bb 53 7d 3a 3d 88 a7 23 3d 6c 85 d4 bb
       -0.005985784 0.045529675 0.039954692 -0.0064856317
000080 56 47 85 bb ef de 22 3d 8a 64 29 bc c0 45 c4 bb
       -0.004067342 0.039763387 -0.010338912 -0.00598976
000090 00 00 00 00 80 87 63 bb aa f1 84 bb bb ce 57 3c
       0.0 -0.0034718215 -0.004057129 0.013171847
0000a0 4c e5 93 bc 00 00 00 00 bc d3 ce 3c 0e e9 55 bb
       -0.018053673 0.0 0.025247447 -0.0032640132
0000b0 00 00 00 00 aa a6 a3 3c c0 f4 72 bc 00 00 00 00
       0.0 0.019976933 -0.014828861 0.0
0000c0 ee e6 5e bb ac ad 18 bd 29 c3 23 bb 00 00 00 00
       -0.0034012157 -0.037275 -0.002498815 0.0
0000d0 d6 51 a0 bb 23 6e fe bb 86 80 4c 3b eb 77 e6 bb
       -0.004892568 -0.007764594 0.0031204536 -0.0070333383
0000e0 00 00 00 00 94 93 0a 3c 36 59 c2 bc 40 62 d2 bb
       0.0 0.008458037 -0.02372418 -0.0064204037
0000f0 a5 32 fd bb 5e b5 89 bc 00 00 00 00 aa 02 ff ba
       -0.0077269846 -0.016810115 0.0 -0.001945575
000100 e1 2c c6 bb 12 14 40 bc 0c 3f ba 3b 36 dd 42 bc
       -0.0060478305 -0.011723535 0.0056837853 -0.011893561
000110 de 72 40 ba 8d d5 25 3b 72 11 c4 bb 15 74 57 bb
       -0.00073413353 0.0025304288 -0.005983525 -0.0032875587
000120 dc e8 90 bb fb 3a a0 bc ae b7 16 3c f4 80 a6 bb
       -0.0044222903 -0.019559374 0.009199066 -0.0050812904
000130 1d 39 8e 3c 11 28 10 bc 00 00 00 00 ba f1 47 3c
       0.017361218 -0.008798615 0.0 0.012203628
000140 25 20 65 ba 00 00 00 00 f0 dd 0e bc 70 1f 79 bc
       -0.00087404466 0.0 -0.008719906 -0.015205249
000150 9d 20 16 bb 9f d9 a7 bb e0 c9 dc bb c3 5f 9d 3b
       -0.0022907623 -0.005122378 -0.0067379326 0.0048026755
000160 5c ad c1 3c 00 00 00 00 a6 cd b0 bb 00 00 00 00
       0.023642235 0.0 -0.005395609 0.0
000170 42 0c 0e bb 67 79 21 bb bd e6 20 bc 93 6b a2 bb
       -0.0021674787 -0.0024639012 -0.009820637 -0.0049566715
000180 85 8a ed bb d2 a8 00 3c 00 00 00 00 b2 0b 9c bb
       -0.007249179 0.00785275 0.0 -0.0047621364
000190 48 36 b2 bb fd dd d5 bc 0d ff b4 3b df 51 5c 3c
       -0.0054385997 -0.026106829 0.0055235685 0.013447254
0001a0 00 00 00 00 00 00 00 00 6f 58 fc 3a 52 a7 5b 3b
       0.0 0.0 0.001925243 0.0033516479
0001b0 a2 7b 36 3c cd 3a 94 bb 28 92 75 bc 00 00 00 00
       0.011137875 -0.004523611 -0.01498846 0.0
0001c0 ed 37 cf ba 47 18 af bb fa e3 22 bc a7 21 28 bc
       -0.0015809514 -0.0053434703 -0.009942049 -0.01026193
0001d0 8a ee 34 3d ec 1e 0d 3c 00 00 00 00 00 00 00 00
       0.0441728 0.008613329 0.0 0.0
0001e0 8b e4 c0 bb 95 21 25 3c 00 00 00 00 4c 80 d5 bb
       -0.0058866194 0.010078807 0.0 -0.0065155383
0001f0 00 00 00 00 58 83 13 bc b5 ac b6 bc 00 00 00 00
       0.0 -0.009003483 -0.02229915 0.0
000200 ee 5f 43 3c 66 2e 08 bc 5c 89 1f bc 00 00 00 00
       0.011924727 -0.0083118435 -0.009737339 0.0
000210 94 3d 0d 3c 64 25 d7 bb 64 0a c9 bb 00 00 00 00
       0.008620638 -0.0065657366 -0.006135272 0.0
000220 87 aa 0e 3d fc ee 09 bc 00 00 00 00 05 87 c4 bb
       0.034830596 -0.008418795 0.0 -0.005997541
000230 00 00 00 00 74 0a 02 3c 95 3b 03 bd 6c fb d8 3d
       0.0 0.0079370625 -0.032039244 0.1059483
000240 06 27 be bb 97 9d 8d bb 34 ba 5f bb 5f ac 9d 3b
       -0.005802992 -0.0043217647 -0.0034138085 0.004811808
000250 c0 92 ad 3a 4a 1e b8 3c 42 95 11 bb 00 00 00 00
       0.0013242587 0.02247538 -0.0022214209 0.0
000260 a7 79 1b 3d 02 30 cc 3a 46 2b be 39 00 00 00 00
       0.037957814 0.0015578272 0.00036271865 0.0
000270 93 f0 0d 3c 46 7f 14 bd 02 fe 01 bc d2 58 1a 3d
       0.008663314 -0.03625419 -0.007934095 0.037682362
000280 00 00 00 00 24 4c 8e 3c 00 00 00 00 00 00 00 00
       0.0 0.017370291 0.0 0.0
000290 72 da 18 bc ee 53 30 3d 76 26 af 3c 3c 3f 81 bb
       -0.009329425 0.04304879 0.021380644 -0.0039443057
0002a0 f4 9b 04 3e 2f 2f 12 3a ab db 92 ba 29 72 0e bc
       0.12950116 0.0005576489 -0.0011204382 -0.00869421
0002b0 8c 52 83 bb 1c 14 6c bb c8 4a 0a 3c 9c 92 c1 bb
       -0.004007643 -0.0036022728 0.008440681 -0.00590737
0002c0 6c 7a e3 bb ab 30 6a 3d 10 f3 af bc bc fc 39 bc
       -0.006942084 0.05717532 -0.021478206 -0.0113517605
0002d0 09 5b 1c bc 00 00 00 00 e2 df 2c 3c 80 c3 86 bb
       -0.009543189 0.0 0.010551425 -0.004112661
0002e0 16 c8 5c bc 00 00 00 00 85 7c 24 3d 60 f4 22 ba
       -0.013475439 0.0 0.040157814 -0.0006216224
0002f0 02 c2 ec bb 94 2c a5 bb 7d 6a 8a bb 63 7b 2f 3c
       -0.007225276 -0.0050407145 -0.00422412 0.01071057
000300 da 2d ef bb d6 24 7c bb 6a 09 94 3a 00 00 00 00
       -0.007299167 -0.0038474104 0.001129431 0.0
000310 00 00 00 00 9e 6b 50 bb 00 00 00 00 c4 b7 c0 bb
       0.0 -0.0031802426 0.0 -0.0058812816
000320 82 c0 99 bb f2 20 e1 3c ff a6 c4 bb 00 00 00 00
       -0.004692138 0.02748153 -0.006001353 0.0
000330 ce c6 bd bb 3b 29 07 3d 00 00 00 00 6e 11 dd bc
       -0.0057915216 0.032998305 0.0 -0.02698585
000340 00 00 00 00 6f 77 17 bc 36 84 31 3e d7 37 85 bb
       0.0 -0.009244784 0.1733559 -0.0040654945
000350 16 64 97 ba 8e f0 fc 3b 00 00 00 00 c2 ae 39 3c
       -0.0011550214 0.007719106 0.0 0.011333169
000360 86 b5 a1 3b 03 e3 27 bc 05 6a 49 bc f1 a2 b5 bc
       0.0049349694 -0.010246995 -0.012293343 -0.022172423
000370 79 2c bb 3c a5 45 1a bc 7b f5 cd bb 89 ff c0 bb
       0.022848355 -0.009416019 -0.006285367 -0.005889837
000380 02 a9 74 3c 55 88 aa bb 3b 72 c5 bb ac f4 40 bb
       0.014932873 -0.0052042403 -0.00602558 -0.002944271
000390 9e 9d 48 bc be b8 fc 3c 0b 36 50 3c 9a f9 3e 3d
       -0.01224461 0.03084981 0.012708197 0.046624757
0003a0 72 4d c7 ba db bd b1 bb 10 16 d4 bb 00 00 00 00
       -0.0015205576 -0.005424244 -0.0064723566 0.0
0003b0 45 5a a9 bb 00 00 00 00 d0 1e 88 bc f3 9d fe bb
       -0.0051682317 0.0 -0.016616255 -0.007770294
0003c0 50 78 60 bc 76 62 6c bb e6 c5 6e 39 7d bb a1 bc
       -0.01370056 -0.003606943 0.00022771172 -0.019742722
0003d0 00 00 00 00 00 00 00 00 ab 52 6c bb c4 41 be 3c
       0.0 0.0 -0.0036060016 0.023224719
0003e0 00 5e 4c 3b 88 ad 88 bb c7 b8 3b bb 8d 1d 2a bc
       0.0031183958 -0.004171077 -0.0028644071 -0.010383022
0003f0 d8 7b 3f 3c 00 00 00 00 ff 47 fa 3a 59 d1 40 3b
       0.0116872415 0.0 0.0019094943 0.0029421656

sequential_2/dense_12/BiasAdd/ReadVariableOp;sequential_2/dense_12/BiasAdd/ReadVariableOp f4 [128]
000000 00 00 00 00 00 00 00 00 79 dc b0 bb 42 eb 01 bc
       0.0 0.0 -0.005397376 -0.007929625
000010 2a f3 c9 bb 00 00 00 00 00 00 00 00 ba 73 63 bc
       -0.0061630206 0.0 0.0 -0.013882572
000020 c9 91 1e bd 00 00 00 00 20 05 e6 bb f1 9a 11 bd
       -0.03871325 0.0 -0.007019654 -0.035548154
000030 d1 76 6a bb 76 fd 78 bc 00 00 00 00 00 00 00 00
       -0.0035776387 -0.015197149 0.0 0.0
000040 00 00 00 00 31 a9 a9 bb 00 00 00 00 72 e0 49 bb
       0.0 -0.00517764 0.0 -0.0030803946
000050 d7 08 3a bc ed 15 1e bc 1e ef ad 3b 00 00 00 00
       -0.011354647 -0.009648782 0.005308046 0.0
000060 2d 9e 8a ba 46 e6 51 3d 30 a2 71 bc 66 45 15 3b
       -0.0010575705 0.051244996 -0.014748141 0.002277696
000070 09 d2 bc bb c5 60 df bb 00 00 00 00 00 00 00 00
       -0.005762343 -0.0068169557 0.0 0.0
000080 f4 66 57 bc fc 14 9f 3d d5 97 d3 bc 26 a3 80 bb
       -0.0131471045 0.07767674 -0.025829235 -0.003925699
000090 d7 db 99 bb 5d a3 3c 3c c7 ba 0c bb ee 84 9c 3c
       -0.0046953964 0.011513558 -0.0021473633 0.019106355
0000a0 00 00 00 00 a5 28 c1 39 00 00 00 00 75 d3 72 bb
       0.0 0.0003684211 0.0 -0.0037052308
0000b0 e8 91 b8 bb a0 6f cb 3d 61 bb ef 3b 76 96 3e 3b
       -0.0056326278 0.099334 0.0073160385 0.002908138
0000c0 a6 94 72 3b d1 27 06 3e 00 00 00 00 0f ac 20 3c
       0.003701487 0.13101126 0.0 0.009806647
0000d0 00 00 00 00 34 b6 5c 3c be c2 2a 3d 00 00 00 00
       0.0 0.013471175 0.041689627 0.0
0000e0 14 06 14 bd 33 ed f5 bb 68 dd 09 bc 21 7c 0d bc
       -0.03613861 -0.007505083 -0.008414604 -0.008635552
0000f0 88 26 13 bc b2 5f e0 bc 26 33 8a 3c ed 33 d4 ba
       -0.008981355 -0.027389381 0.016870093 -0.0016189791
000100 00 00 00 00 fd 30 f3 bb a8 1d 0d bb 00 00 00 00
       0.0 -0.0074216113 -0.002153257 0.0
000110 00 00 00 00 a6 2e 27 3c c3 80 1a bd 72 f3 01 bc
       0.0 0.010203993 -0.037720453 -0.007931577
000120 19 d6 83 bc 00 00 00 00 09 e2 34 bc 00 00 00 00
       -0.0160933 0.0 -0.011040219 0.0
000130 8b 01 87 bc 6f 6d 63 bc 00 00 00 00 ba c1 bc bd
       -0.016480228 -0.0138810715 0.0 -0.09216638
000140 48 40 14 bc 00 00 00 00 31 34 2f 3d 9c a9 89 bc
       -0.009048529 0.0 0.042774383 -0.016804509
000150 bc 8b be bc 3d 76 dc 3c e0 16 0f 3d f0 4c f3 3b
       -0.02325999 0.02691185 0.034933925 0.007424943
000160 00 00 00 00 17 fe d6 3b bf 15 b0 bd 00 00 00 00
       0.0 0.0065610516 -0.08597898 0.0
000170 00 00 00 00 e6 c6 8b 3c dd f1 11 bd d7 2b bb 3b
       0.0 0.017062616 -0.03563105 0.005712013
000180 bf 0b 09 bc 2c 9a 15 bc 4c 3c 40 3b 2e 2f ae bb
       -0.008364617 -0.009130996 0.0029332815 -0.005315683
000190 ea 03 88 3c 3e 58 8b bc 6b 94 7c bc 41 f6 ed bc
       0.016603429 -0.01700985 -0.015416245 -0.029048087
0001a0 00 00 00 00 c3 1e f7 bb d3 29 02 bc 12 47 b8 3c
       0.0 -0.007541509 -0.007944542 0.022494826
0001b0 79 4e 62 3c e7 f7 63 bb 00 00 00 00 00 00 00 00
       0.013812655 -0.0034785212 0.0 0.0
0001c0 dd 6c 6e bb e6 41 a9 3c 3a 7e bf ba 00 00 00 00
       -0.0036380806 0.020661306 -0.0014609762 0.0
0001d0 00 00 00 00 7b e2 bc 3b 63 51 d9 3c 0a 74 cd 3b
       0.0 0.0057643033 0.026528066 0.0062699364
0001e0 13 93 99 bb 00 00 00 00 36 df 3b 3e 8c ec 03 3d
       -0.004686722 0.0 0.18346867 0.03220801
0001f0 04 a6 04 bc 00 00 00 00 06 ce 2a 3c 4b a3 a2 bc
       -0.008096222 0.0 0.010425096 -0.019853255

sequential_2/dense_11/BiasAdd/ReadVariableOp;sequential_2/dense_11/BiasAdd/ReadVariableOp f4 [64]
000000 6c 26 8a bc c3 53 b2 bc 8a 67 58 3c 9c 5b 88 3b
       -0.016864024 -0.021768456 0.013208279 0.0041613113
000010 ef f1 ce bb 47 ac d3 3b 56 e9 31 bd 6d b2 d9 bb
       -0.006315462 0.006459746 -0.043435417 -0.0066435845
000020 5b 97 6d 3c a7 d5 a7 3c 00 00 00 00 42 65 91 3b
       0.014501418 0.02048762 0.0 0.0044371197
000030 00 00 00 00 84 1a f4 bc 10 1a e0 bb da ba 8c 3d
       0.0 -0.0297978 -0.0068390444 0.068715766
000040 da af 0d 3c 00 00 00 00 00 00 00 00 56 cc 89 3d
       0.008647883 0.0 0.0 0.06728427
000050 23 72 de 3c c9 66 b4 3c f0 75 a5 bc 00 00 00 00
       0.027154034 0.022021668 -0.020197839 0.0
000060 84 61 11 3c 8b 3a 7c bc b9 06 a8 bd ba 1c dc 3c
       0.008873347 -0.015394817 -0.08204407 0.026869167
000070 b6 6a 4f 3d fb 17 95 3c c4 25 12 bc 00 00 00 00
       0.050638877 0.018199911 -0.008920137 0.0
000080 1f 84 97 bb 1e 6a ae bc 00 00 00 00 c0 0f d9 bc
       -0.0046239044 -0.021290835 0.0 -0.026496768
000090 38 44 81 3c 93 ed f5 bc fa c8 14 bb 56 1a 8d bd
       0.0157796 -0.03002051 -0.00227028 -0.06889789
0000a0 33 91 1d bb 00 00 00 00 74 cb e9 bb f5 8e 8c bc
       -0.0024042844 0.0 -0.007134849 -0.017158011
0000b0 00 00 00 00 d3 cf 31 bd 4f a8 b2 3b 00 00 00 00
       0.0 -0.043411087 0.005452193 0.0
0000c0 00 00 00 00 2a 64 82 bb 00 00 00 00 f6 0f b5 3c
       0.0 -0.0039792256 0.0 0.022102337
0000d0 48 62 90 bc b8 b4 76 3b 00 00 00 00 9d 6c 68 bd
       -0.01762499 0.0037644338 0.0 -0.056744207
0000e0 00 00 00 00 ef 08 a8 bc c4 ba fc bc c1 dc 8b 3c
       0.0 -0.020512072 -0.030850776 0.017073037
0000f0 cb b6 e0 3d bb 09 7b bb 00 00 00 00 fe db 3e bc
       0.10972365 -0.003830536 0.0 -0.01164913

sequential_2/dense_11/MatMul;sequential_2/dense_11/MatMul f4 [64, 42]
000000 01 47 6a be f9 21 a5 bd 16 f4 cd bd 8e 9d 1e 3e
       -0.22878648 -0.080631204 -0.10056321 0.1548979
000010 65 08 d9 bc 8e a5 5a 3d da fe 36 3e 5e 91 4a 3e
       -0.02649326 0.05338054 0.17870656 0.19782016
000020 ef 42 ec 3d a6 3f 86 3d 99 b3 09 3e 23 e1 22 3e
       0.11536204 0.06555109 0.13447417 0.15906195
000030 f6 d1 78 bd 9a ec 33 be e3 d2 4c be c0 96 10 3e
       -0.06074711 -0.17570725 -0.20002322 0.14120007
000040 6b 03 d0 bd 36 6b 9c 3d a4 63 8d 3d 13 96 32 be
       -0.10156902 0.07637636 0.069037706 -0.17440061
000050 97 2c b4 bd bd 7b 1b be 53 53 62 3e bc cb 45 bd
       -0.08797567 -0.15183921 0.22102098 -0.04829
000060 ce 5b 2a be 8e 6d 12 3e 26 54 5f be 89 48 eb 3d
       -0.16636583 0.14299604 -0.21809444 0.11488444
000070 4d 22 04 be dd 48 0f 3e 3e 36 68 be 44 22 6f 3e
       -0.1290371 0.13992639 -0.22676942 0.23352915
000080 8b 4e 52 3e 79 e8 a5 bd da 36 08 3e 9b 25 85 bd
       0.20537774 -0.08100981 0.13302174 -0.06501313
000090 15 c2 6d 3e 5b dc 16 bc a4 95 5a be 0d dc e0 bc
       0.23218568 -0.00920781 -0.21346146 -0.027448678
0000a0 eb 5b 83 bd f6 02 ce bd 38 ec 63 3e ee 48 3b be
       -0.06414016 -0.100591585 0.22258079 -0.18289539
0000b0 64 bd 61 3d 77 cf 49 be 7b 6a bc 3d de 72 0e 3e
       0.055112258 -0.19708048 0.09199997 0.13911006
0000c0 eb 34 c0 3d 26 8c af bd 34 9b 07 3e 5c b1 62 be
       0.09385093 -0.08571653 0.13242799 -0.2213797
0000d0 c1 4a 51 be d2 28 21 be 68 18 f3 3d 2c 6d 02 3e
       -0.20438673 -0.15738228 0.118698895 0.12736958
0000e0 d7 63 9a 3d b0 9b 91 3d 41 0b f1 bb 7f 95 6e be
       0.07538574 0.07109773 -0.007356078 -0.23299216
0000f0 07 a0 fc bd 94 ad 71 3d d3 cd 3a 3e 06 82 21 3c
       -0.1233521 0.059003428 0.18242578 0.00985766
000100 fb f5 22 3e ba 3e f0 3d d2 4b 9d 3c 5f 96 fd 3d
       0.15914147 0.11730714 0.019201193 0.12382197
000110 3c 48 51 3e 04 c0 6b 3e 0a f5 f1 bb e5 e4 5a be
       0.20437711 0.23022467 -0.0073839473 -0.21376379
000120 32 8e 9a 3d 7d 9e 43 be ea 4e 08 be a7 23 07 be
       0.07546653 -0.19103427 -0.13311353 -0.13197194
000130 08 a4 44 3e 44 2d 97 3c 32 a6 34 3e 66 b7 47 be
       0.19203198 0.018454202 0.17641523 -0.19503555
000140 c3 e0 86 bc 8e ae 08 3d e9 f6 4e 3e 72 a5 64 3e
       -0.016464597 0.033369593 0.20211376 0.22328737
000150 b6 a5 09 bd fa c0 06 3c 68 13 6f bd 4b 7a d5 3d
       -0.0336053 0.00822472 -0.058368117 0.10423716
000160 42 e3 98 3c 2c 78 a4 bd cc 1c 4c be a0 77 c0 3d
       0.018663052 -0.080307335 -0.1993286 0.09397817
000170 6f 09 ab bb c4 76 6d 3e 53 de 61 bd 16 51 47 3e
       -0.0052196304 0.23189837 -0.055143666 0.19464526
000180 e6 0c 16 3e ac 77 f3 3d 19 2a 41 bd 24 83 24 bd
       0.14653358 0.1188806 -0.047159288 -0.040164128
000190 eb a0 a2 3d 20 32 46 3e aa d0 15 bd 2e 49 6c be
       0.07940849 0.19355059 -0.03657595 -0.23074791
0001a0 46 52 b8 bd 6a 1b e1 bd 4b da 96 3d be ad 7f bd
       -0.090000674 -0.10991557 0.07365855 -0.062421553
0001b0 d6 07 93 3d 51 b4 fb 3d fd c5 ea bd 0d d2 2b be
       0.07179229 0.12290252 -0.114635445 -0.16779347
0001c0 f0 61 b1 bd 79 14 3e 3d 4a 03 5c 3e 3d 80 fb bd
       -0.08661258 0.046406243 0.2148563 -0.12280319
0001d0 e5 b0 09 be 4f 57 f1 3d 92 89 5f 3e 68 32 2d be
       -0.13446386 0.11784231 0.21829823 -0.1691376
0001e0 df 42 ad 3c 6b d2 39 be c8 da 0e be 18 f6 bf bc
       0.02115005 -0.18146674 -0.13950646 -0.023432776
0001f0 ed be 28 be 98 63 df 3d da f7 c1 3d c4 a8 15 3e
       -0.16479082 0.10907668 0.09471102 0.1461516
000200 db 07 1a 3e 7c 6d 68 3e f3 b4 06 3e 99 90 53 bd
       0.15042059 0.22698015 0.13154964 -0.05165157
000210 20 7b 80 bd f7 55 44 3e f5 09 42 bd 4b d6 f1 bd
       -0.06273484 0.19173418 -0.047372777 -0.11808451
000220 a3 ad d6 bd ee ae 84 bd a0 51 30 be d3 41 13 be
       -0.10482337 -0.06478678 -0.17218637 -0.14380579
000230 9f a8 35 3e 77 68 72 bd cd 4c 61 3e d0 0f 14 3e
       0.17740105 -0.059181657 0.22001953 0.14459157
000240 67 6c b8 bd 3d 3c 34 be 51 70 7d bc 47 b7 3e 3e
       -0.09005051 -0.17601104 -0.015468673 0.18624602
000250 1b 08 68 3e 74 e2 d1 bc 1f 63 69 3e 3e 40 e2 bd
       0.22659342 -0.025620677 0.22791718 -0.110474095
000260 a5 93 92 bd 24 13 e0 bd ac 62 aa 3d 16 4d 77 3e
       -0.07157067 -0.10941151 0.083196014 0.241505
000270 dc 0f 06 3e 8a b9 9c 3d 30 ef 5b 3e 3d 55 b0 bc
       0.13091987 0.07652576 0.21477962 -0.02152502
000280 55 04 c8 bc 60 f6 78 bd 13 ec 11 3e 73 0a 01 3e
       -0.024416128 -0.060781837 0.14250211 0.12601642
000290 71 92 d5 3d c1 d2 4f 3d 77 89 08 3e 51 4b a2 3d
       0.10428322 0.0507381 0.13333689 0.07924522
0002a0 ea fc f5 bc e0 4f 30 be 2e b5 63 3e 13 b9 bf bc
       -0.030027825 -0.1721797 0.22237083 -0.02340368
0002b0 cc 3f 6e 3d bd e1 3e 3e 99 c2 a8 3d 30 79 df bd
       0.05816631 0.186408 0.082402416 -0.109117866
0002c0 1d 39 76 be 0f da ba bd 6d 30 37 3e cc 55 17 3d
       -0.24045224 -0.091236226 0.17889567 0.036947057
0002d0 6a 9a 8b bc 1b ad 59 3e ec 49 0a bb 99 02 3f 3e
       -0.017041404 0.21257441 -0.002110119 0.18653335
0002e0 cd 90 24 3e 90 ca 75 bb 1a a4 46 bc 30 88 67 be
       0.16070862 -0.003750477 -0.012124086 -0.22610545
0002f0 7b f2 57 3d 46 b0 0c 3d fc f2 88 bd 9c 04 5c 3e
       0.05272148 0.034347795 -0.066869706 0.21486133
000300 8a eb bc 3c 23 0e 44 3e 4c b4 0a 3e 41 25 37 3e
       0.023061533 0.19146018 0.1354534 0.17885305
000310 df 43 9d bd 7c ed d0 bd 6c 26 14 3d 4b e4 d3 bd
       -0.07678961 -0.102015465 0.036169454 -0.10346278
000320 d6 7b 8c 3d 98 ab 97 3d cb ee 21 3d 38 c2 16 be
       0.06859557 0.07405776 0.03953437 -0.14722526
000330 88 ea 5a bd 16 b0 53 3e 72 7c 45 be 12 67 31 3e
       -0.053446323 0.2067264 -0.19285753 0.17324474
000340 41 2a 4b 3e c3 97 52 3e 7c 8d 9e 3d b7 3a 6b be
       0.19840337 0.20565705 0.0774183 -0.22971617
000350 16 ce 51 3e 14 7c 76 bd 19 cf 27 3e 43 81 a4 bd
       0.20488772 -0.060176924 0.16387595 -0.08032467
000360 4e 85 60 be 40 06 26 3e 58 98 66 3e fe 1d 03 bd
       -0.21925852 0.16213322 0.22519052 -0.032011025
000370 6b ad 52 3d 5e cf 21 be 2d 40 c7 3d 9c 1c 3a be
       0.051434916 -0.1580176 0.097290374 -0.18174976
000380 32 5b 68 3e 9c f6 51 bd fb 5b 3e bd a0 68 17 3e
       0.22691038 -0.051260576 -0.04647444 0.14786005
000390 a2 e4 e2 3d e6 a5 77 be 7e 4c 9e 3d 7a bb 17 3e
       0.110787645 -0.24184379 0.077294335 0.1481761
0003a0 b9 68 dd 3d 96 8a 6c be 9c d4 c5 3d 93 ce 74 3d
       0.1081099 -0.23099741 0.09659693 0.059767317
0003b0 d9 77 b5 3c 51 cb 84 3d 08 2e a0 3c 99 48 63 3e
       0.022151874 0.06484092 0.0195532 0.22195663
0003c0 58 15 ea 3d d9 83 8e bd 89 8e f5 3d 34 df 3a 3e
       0.11429852 -0.06958742 0.11990077 0.18249208
0003d0 4e 86 3f 3e 3e 56 8d bb f5 94 03 3e 33 09 ac 3d
       0.18703577 -0.0043132594 0.12849791 0.08400192
0003e0 cb b8 5f 3d c0 ff 00 3e 8a 34 1d 3e af 07 36 bd
       0.05461959 0.12597561 0.15352073 -0.04444092
0003f0 38 4a 2e 3e 24 76 49 be 9a bb 17 be dd 30 2f be
       0.170205 -0.19673973 -0.14817658 -0.17108484

sequential_2/dense_12/MatMul;sequential_2/dense_12/MatMul f4 [128, 64]
000000 a1 28 19 be 2f 0a 2d be b4 b7 08 3d 4d 9b e3 bd
       -0.14956905 -0.16898416 0.033378318 -0.11113606
000010 0a 8b eb 3d 54 71 46 bd ca 8e ed 3d 92 49 a1 3d
       0.11501129 -0.048447922 0.115995005 0.078753605
000020 5e d6 da bd 70 a5 8c 3c e2 43 8b bd e8 fe 74 3d
       -0.106854185 0.01716873 -0.06800057 0.05981341
000030 bd 08 29 3e 00 f1 ec ba 87 f4 13 be c8 71 d4 bc
       0.1650724 -0.0018077195 -0.14448749 -0.025933161
000040 18 3a 49 3d 70 b7 44 bd c3 54 ad bd 64 ff 08 bd
       0.04912767 -0.048026502 -0.08463433 -0.033446684
000050 5a 0d 19 be 4a e7 2f be e8 9c 5d 3d 48 8a 45 bd
       -0.149465 -0.17178074 0.054104716 -0.04822758
000060 ce 72 dd 3d 80 b4 e8 bc 75 1f 1b 3e af ca d5 bd
       0.10812913 -0.028406382 0.15148719 -0.104390495
000070 b6 f6 8c 3d f5 58 30 be 88 1b 47 bd 2a 0e b8 3d
       0.06882994 -0.17221434 -0.04861024 0.089870766
000080 a2 d1 de 3d ca 9a bd 3d 1d 1f 19 3e ce 85 9a 3d
       0.10879828 0.09258039 0.14953275 0.075450525
000090 cc 1e e0 bd 90 91 d2 bc 40 31 2b be a8 09 c8 3c
       -0.10943374 -0.025704175 -0.16718006 0.024418667
0000a0 d8 04 fa bc 00 9c bc 3c 90 c6 30 3d 8e 90 ac 3d
       -0.030519888 0.023023605 0.043158114 0.08426009
0000b0 aa 91 ce bd 57 67 08 be bd 43 20 be a0 07 34 3c
       -0.10086377 -0.13320671 -0.1565084 0.010988146
0000c0 a5 e6 25 be ad bf d1 bd fc be 02 3d f1 ec d8 bd
       -0.16201265 -0.102416374 0.03192042 -0.10592068
0000d0 80 9b 07 3b e8 ed 5d 3d 60 7a b3 3b da ee c5 bd
       0.002069205 0.054181963 0.0054772347 -0.09664698
0000e0 fa 05 a2 3d 70 95 12 3c f7 3d c1 bd d2 a0 1e be
       0.07911296 0.0089467615 -0.09435647 -0.15491036
0000f0 7a 63 90 bd f1 c5 06 3e d0 39 ff 3c e8 ce df bc
       -0.07050224 0.13161446 0.031155497 -0.02732034
000100 a0 50 4b bd 40 29 0f 3b cb ad 9c bd a2 ff 19 be
       -0.049637437 0.0021844655 -0.07650336 -0.15038922
000110 b0 1a 6c bd 7d 12 11 3e f7 29 9b bd 63 2b 22 be
       -0.05764264 0.14167209 -0.075763635 -0.15836863
000120 e0 d1 a3 3c 0c 62 a8 bd 2a 2c 2c be 82 b4 fa 3d
       0.019997537 -0.08221826 -0.16813722 0.122414604
000130 f6 60 f4 3d 09 85 11 be 6e 6e 07 be 90 46 00 3d
       0.11932556 -0.14210905 -0.1322572 0.031317294
000140 56 2d c8 3d 03 d6 17 3e d3 34 0f be 0a 41 7b bd
       0.09774272 0.14827733 -0.13984995 -0.061341323
000150 3b 58 01 be ab 18 c0 bd 96 96 fd bd 05 a3 29 3e
       -0.12631314 -0.09379705 -0.123822376 0.16566093
000160 00 f5 40 3b 7e 27 f3 3d 79 12 2b 3e b0 cc 1c 3d
       0.0029442906 0.11872767 0.16706266 0.038281143
000170 77 48 18 be 48 53 75 bd 46 11 b6 bd cf 0d 09 be
       -0.14871393 -0.059893876 -0.088900134 -0.13384174
000180 1c 9c 32 be 03 17 d9 bd df fb 05 be 28 7b ea bd
       -0.17442364 -0.10600092 -0.13084362 -0.114492714
000190 ab b2 1b be c0 61 66 bb a6 95 b8 3d 8f 1b 1f 3e
       -0.15204875 -0.0035153478 0.09012918 0.15537857
0001a0 04 f0 6c bd dd ca 09 3e 85 e3 c0 bd dc 76 87 3d
       -0.057846084 0.13456292 -0.09418396 0.066144675
0001b0 d4 70 6c 3d 28 d7 2c bd c0 28 e5 3b 80 79 09 bd
       0.05772479 -0.042197376 0.006993383 -0.033563137
0001c0 b0 96 95 bc 50 62 82 bd c3 9d 05 3e 48 4b 04 3d
       -0.01826033 -0.06366408 0.13048463 0.032298356
0001d0 64 82 70 bd 08 97 3e bd f1 e5 1a be 08 02 f2 3c
       -0.0587181 -0.046530753 -0.15126778 0.029541984
0001e0 2c f8 2c bd e0 27 26 3d 74 e0 10 bd 04 3c 74 bd
       -0.042228863 0.04056537 -0.035370305 -0.059627548
0001f0 a4 d1 27 3d b2 8d 8d bd 21 c7 00 be 00 a0 cc 3a
       0.040971413 -0.06911792 -0.12575962 0.0015611649
000200 df 48 09 be 75 5d 15 3e 58 40 c2 bc df d9 e3 bd
       -0.13406704 0.14586432 -0.023712322 -0.1112554
000210 f5 5f 11 be 16 1b ac bd 5c b0 3c 3d ad 89 dc 3d
       -0.14196761 -0.08403604 0.046066627 0.10768447
000220 0a 23 7c 3c 02 32 6e bd 45 28 af bd 59 42 f5 3c
       0.015389213 -0.05815316 -0.08552603 0.029938864
000230 3b 0d 28 3e da c5 03 be 22 fc 7c bd 00 dc 60 3a
       0.16411297 -0.12868443 -0.06176389 0.00085777044
000240 ef 2d b6 bd ec da 0c be 20 29 fe bc ff d9 cf 3d
       -0.0889548 -0.13755387 -0.03102547 0.10149001
000250 9a c4 1c 3e 37 10 09 3e 18 64 bf 3d 7f c3 30 3e
       0.15309373 0.13385092 0.09345263 0.17262076
000260 85 25 01 be b0 c4 18 bd c5 c6 28 3d 02 9b 05 3e
       -0.12611969 -0.03729695 0.041205186 0.13047412
000270 05 c1 62 3d 75 ee 86 3d d7 be 3e bd 60 fd eb 3b
       0.05535986 0.06588451 -0.046568718 0.0072018355
000280 a8 5d c7 bd 38 26 e5 3d 97 4d 20 3e 71 4e 0e 3e
       -0.097346604 0.1118893 0.15654598 0.1389711
000290 dd 3a 4a 3d 60 fc 6b 3d c1 b7 1c 3e 77 b6 17 be
       0.049372543 0.05761373 0.15304472 -0.14815699
0002a0 3d f3 c8 3d 43 fe aa bd d9 c6 33 3e 3d 9d 28 be
       0.09812019 -0.08349278 0.17556323 -0.16466232
0002b0 6e 03 34 be d1 12 18 3e c0 78 bc bd 98 dd 28 3d
       -0.17579433 0.14850928 -0.09202719 0.041226953
0002c0 6f 6a 9d bd 04 75 6e bd 9a 1f ea 3d 45 2b 1f be
       -0.07686316 -0.058217064 0.11431809 -0.1554385
0002d0 30 59 8c bd a9 c3 26 3e de df ca 3d 71 a9 53 3c
       -0.06852949 0.16285576 0.099059805 0.012918816
0002e0 9a 52 c5 3d f4 b9 eb bd 1b b5 97 bd f2 85 d7 bd
       0.096348956 -0.11510077 -0.0740759 -0.10523595
0002f0 c1 c0 ac bc a5 4a 8f bd 64 71 51 3d 8a be f9 bd
       -0.021088006 -0.06996659 0.05113353 -0.121945456
000300 a7 a1 72 3c ab ef 07 be 2a 9d 51 bd 02 e6 1d 3e
       0.014809049 -0.1327502 -0.051175274 0.15419772
000310 05 3f 93 bd 87 21 1d 3e c2 0c 01 3e a2 81 73 bd
       -0.071897544 0.15344821 0.12602523 -0.0594498
000320 0b 4c 82 bc 9f a8 7f 3c b0 3f 5a 3c 54 c5 37 bd
       -0.0159054 0.015604167 0.013320848 -0.04486592
000330 04 6f 2d bd f0 8d 1a be 07 ae 0f be b5 20 a2 3d
       -0.0423422 -0.15093207 -0.1403123 0.079163946
000340 cc 1b 30 be 00 0d fa bb 96 cc aa 3d ec 86 9b 3d
       -0.17198104 -0.0076309443 0.08339803 0.07594094
000350 bd 79 78 3b 22 36 d1 3c a9 26 08 3e 83 67 00 3e
       0.0037914359 0.025538508 0.13295998 0.12539487
000360 1b 27 88 3d 9f ed fc 3d b5 1f da 3c e8 3f 1b be
       0.06648084 0.1235001 0.026626447 -0.15161097
000370 c4 c8 a3 3a 7b 52 df bd c1 57 08 bd f6 77 87 3d
       0.0012495746 -0.10904404 -0.033286814 0.066146776
000380 ba 90 32 3e b2 7e 16 3c ff 36 0f 3e 86 66 7e bd
       0.17438021 0.00918548 0.13985823 -0.062109493
000390 63 e3 a6 bd 19 a3 01 3d 36 b9 db bc 35 47 e5 bb
       -0.08148839 0.031649683 -0.026821714 -0.006997014
0003a0 3b 6e 02 3e cc 3c 54 3d bb ce 1c be f1 bf 2c 3b
       0.12737362 0.051815793 -0.15313236 0.0026359523
0003b0 c8 17 38 bd f0 7f da 3b 9a 6d af bc f3 9e f3 bd
       -0.044944555 0.0066680834 -0.021414567 -0.118955515
0003c0 cb ef 01 3e da 71 e3 3d 30 93 78 bd 19 bf 1a bd
       0.1268913 0.111057 -0.060687244 -0.0377799
0003d0 ae 01 65 bd a8 ac 03 be c7 44 91 bd b7 81 58 bc
       -0.055909805 -0.12858832 -0.07093196 -0.01321452
0003e0 e8 82 b4 bd f7 b0 1a be c7 d3 ea 3d db c4 42 bc
       -0.08814031 -0.15106569 0.114661746 -0.011887754
0003f0 ab 15 2a be c0 1c 99 3d 95 67 21 3e 4c 88 ed 3d
       -0.16609828 0.07476187 0.1576217 0.11598262

sequential_2/dense_13/MatMul;sequential_2/dense_13/MatMul f4 [512, 128]
000000 28 72 43 3d 16 95 be 3d aa c4 9c bd dd 93 63 bd
       0.04771629 0.0930578 -0.07654698 -0.055560935
000010 be 09 a3 3d 70 40 45 3d 50 15 0f bc b8 9e b1 bc
       0.079608425 0.048157156 -0.008733109 -0.021682128
000020 c6 0c bd 3d d2 92 8d bd 14 3b a4 3c 92 f5 be 3d
       0.09230952 -0.069127694 0.020047702 0.093241826
000030 65 27 af bd 60 04 20 bd f4 cb ab 3c cc 5e 0c 3d
       -0.08552436 -0.039066672 0.020971276 0.034270093
000040 98 f0 51 3d e8 8b d8 bc c0 cf 9c 3d 52 87 86 bd
       0.05125484 -0.0264339 0.07656813 -0.06568779
000050 da 98 c4 bd eb 00 ac bd 06 d4 33 bd b4 e0 67 3d
       -0.095994666 -0.083986126 -0.043903373 0.056610778
000060 e0 e6 b1 3d 6b d6 a1 bd e4 90 ae bd a8 7e 7f bc
       0.08686614 -0.07902225 -0.085237294 -0.015594162
000070 d0 15 9b bc 84 1e 0e bd c8 ab c4 3d 48 39 bc bc
       -0.0189313 -0.03469707 0.09603077 -0.022976533
000080 ca e4 97 3d c9 f2 81 bd 3c 4f 4b 3d 1e d3 7b bd
       0.07416685 -0.06345136 0.04963611 -0.061480634
000090 d8 cd 4d 3c fd 49 64 bd 6f aa 7d bd a0 82 4e bb
       0.012561284 -0.055734623 -0.061930116 -0.0031510964
0000a0 f8 a5 ff 3c 58 0f 3e 3d dc d4 4e 3d c8 80 99 3d
       0.03120707 0.04640135 0.050495967 0.07495266
0000b0 ca ab 4f bd 3c 76 99 3d 7c e1 11 3d 0c 67 a4 bd
       -0.05070094 0.074932545 0.03561543 -0.08027467
0000c0 96 14 81 3d 46 f8 02 bd ef 95 a7 bd 80 a1 e5 3b
       0.063027546 -0.031975053 -0.081828944 0.0070077777
0000d0 38 ac f7 3c e1 ec 1b bd 81 85 1d bd b4 14 9f 3d
       0.030233487 -0.038067702 -0.038457397 0.07767621
0000e0 64 b5 be bd 00 aa e5 3b 24 8f 87 bd d0 21 ea bc
       -0.09311941 0.007008791 -0.06619099 -0.028580576
0000f0 a0 19 40 3b 64 37 a3 bd 64 b2 bf bd 98 45 93 bd
       0.0029312149 -0.07969549 -0.09360197 -0.07191008
000100 93 72 7f bd a8 3d 23 3d 80 79 c3 bd d6 93 9d 3d
       -0.062365126 0.03985372 -0.09544659 0.07694213
000110 f2 0b b5 bd e0 0e 0d bd 8d 34 15 bd 38 27 61 3d
       -0.08840169 -0.034438014 -0.03642707 0.054969043
000120 dc c6 86 3c 40 29 e6 3c 03 b6 b4 bd b8 b8 3d 3d
       0.016452245 0.028095841 -0.088237785 0.04631874
000130 d8 fe d1 bc 18 1a 5c 3c 89 66 0f bd 38 78 1b bc
       -0.025634214 0.013433956 -0.035009895 -0.009489112
000140 dc c2 c2 bc a0 58 10 3d e1 c2 b7 bd a0 80 44 3c
       -0.023774557 0.03524077 -0.08972717 0.011993557
000150 78 ea 7b 3d 00 e0 82 3b 60 a8 2b bb f5 0f 73 bd
       0.061502904 0.003993988 -0.0026192889 -0.05934139
000160 48 b0 6e 3d 90 3b f8 3c f3 b8 9c bd 84 ac 5c 3d
       0.058273584 0.03030184 -0.07652464 0.05387546
000170 8d 2c 46 bd 80 b5 ea 3c c0 f5 28 3d 02 5b 94 3d
       -0.04838233 0.028651 0.04124999 0.07243921
000180 64 61 1d 3d d0 ed bf 3b 8c 19 b5 bd f8 03 59 3d
       0.038422957 0.005857207 -0.08842763 0.0529823
000190 fa 26 85 bd 24 f2 a5 3d 68 43 3d 3c 48 41 84 bc
       -0.06501575 0.08102825 0.011551715 -0.01614441
0001a0 a0 b6 12 3d ae 75 5e bd a0 0d 61 3c 78 3e 60 3d
       0.035818696 -0.054311447 0.013736159 0.054747075
0001b0 fc 57 e0 bc e0 ff a2 bd 22 d6 ba 3d 20 87 75 bc
       -0.027385704 -0.079589605 0.09122874 -0.01498583
0001c0 40 24 ec 3c 30 f9 48 bc 1f 70 9e bd c8 d3 9b 3c
       0.02882588 -0.012266442 -0.07736229 0.019021884
0001d0 61 38 7e bd 91 7b 2b bd 76 54 a0 bd 59 a3 ae bd
       -0.062065486 -0.04186589 -0.0782861 -0.0852725
0001e0 80 e3 64 bb c4 7d 40 3d 72 65 a3 bd 20 9e d4 bb
       -0.003492564 0.04699494 -0.079783335 -0.0064885765
0001f0 70 30 13 3c 1d 30 5e bd 20 06 d3 3b 2c 66 60 3d
       0.008983716 -0.054245103 0.006439939 0.05478494
000200 cb 37 b2 bd ca d7 8e bd 97 06 01 bd a6 a3 5e bd
       -0.08702048 -0.06974752 -0.031500425 -0.054355286
000210 a3 15 53 bc 6a f9 9a bd 38 a8 54 bc c9 62 5e bd
       -0.012883577 -0.07567103 -0.01297956 -0.054293428
000220 b9 a9 6e 3c c8 c1 2f 3d 8e b5 9d 3d 0e fe 85 bd
       0.014566832 0.042909414 0.077006444 -0.06542598
000230 fc f7 71 3d 26 d2 f2 3c 98 42 07 bc 1c 7b 8a 3d
       0.059074387 0.029641222 -0.008255623 0.067617625
000240 88 6d b3 bc 95 9d 92 3d 50 b5 14 bc 84 c3 2f 3d
       -0.021902815 0.07158963 -0.009076431 0.042911068
000250 93 41 0b 3d bc 36 8f 3d ef e4 ba bd 1c 38 f0 bc
       0.033998083 0.06992862 -0.09125697 -0.02932363
000260 11 1b 91 bd 69 4b 2a bc d7 93 02 bc f8 e1 ff 3b
       -0.07085241 -0.010393956 -0.007969818 0.00780892
000270 a2 ee 01 bd b6 94 4b bd 50 c6 39 bc 73 e4 3c bd
       -0.03172172 -0.04970237 -0.011338785 -0.046116304
000280 8d 36 a3 bd 6e 26 3a be 6e d8 32 bd b5 e4 b1 3b
       -0.07969389 -0.18178722 -0.043663435 0.0054288753
000290 88 45 06 3c 23 a0 fa bc 94 1b b9 bd cb 77 b1 bd
       0.0081952885 -0.030593937 -0.09038463 -0.08665427
0002a0 fb fa 69 bd b2 e9 09 bd 9c a1 c7 bc cf 44 29 bd
       -0.05712412 -0.033670135 -0.024369054 -0.041325387
0002b0 dc c4 22 bd 09 50 b4 3e 22 54 5c 3d 38 c6 1e bd
       -0.03973852 0.35217312 0.053791173 -0.038763255
0002c0 e0 b5 da bc 74 2d 90 3d a2 08 64 bd e2 73 0a bb
       -0.026698053 0.070399195 -0.055672295 -0.00211262
0002d0 90 1c 98 bd b6 ae fc 3c 78 ae 7a bd f8 b2 59 bc
       -0.07427323 0.030845027 -0.061201543 -0.013287298
0002e0 8e 6e 80 3d e1 ee 8c bd ae bf a2 3d ea a2 a9 3d
       0.06271087 -0.068815 0.07946716 0.082830265
0002f0 5d 7d 69 bc d6 4f 98 3d 79 e0 7b 3d 83 00 78 3c
       -0.01425108 0.074371025 0.06149337 0.015136841
000300 dc 47 4c 3d 99 2c 3c 3d 00 1c c1 bd ec 42 88 bd
       0.049873218 0.04594097 -0.09429169 -0.06653389
000310 c0 23 90 3c ed 79 a9 3d fe 52 cd bc 32 ff bc bd
       0.017595172 0.082752086 -0.025063988 -0.09228362
000320 5a bd 9c 3d c0 0b 78 3d 45 b8 89 3d e0 23 84 3d
       0.076533034 0.06055808 0.067246 0.06452155
000330 a8 2b b5 bc 94 33 a2 bd bd 74 ae bd 2d 4d b9 3c
       -0.022115543 -0.07919994 -0.0851836 0.022619808
000340 58 8a 04 bb 70 25 a1 3d 29 c0 52 3d 42 ff ba bd
       -0.002022406 0.07868469 0.05145279 -0.09130718
000350 f5 fb 8a bc 30 c1 b2 bd a7 a3 b4 bd a3 03 90 3d
       -0.016965846 -0.08728254 -0.08820277 0.07031944
000360 f8 13 52 3c 3d b0 31 3c 2c d8 99 be c1 11 9b bd
       0.012822144 0.010845241 -0.3004774 -0.07571746
000370 24 44 bf bc 70 ab b6 bc cd 0c f6 bc f9 5a 0e bc
       -0.023347922 -0.022298545 -0.0300354 -0.008688682
000380 96 c2 1d bc 5c c0 1a bd 83 c5 40 bd d1 4b 1a 3d
       -0.009628912 -0.037781104 -0.04706336 0.03766996
000390 99 e7 c0 bc 1b bb ff bc a4 0a 78 bd dd c4 d8 bd
       -0.023547934 -0.031217149 -0.060557023 -0.10584424
0003a0 00 7a b0 bd eb ac 43 bc 71 46 9c 3d d0 e1 4c 3d
       -0.0861702 -0.011943082 0.07630623 0.05002004
0003b0 86 28 49 3c 39 15 a5 3d c0 f7 71 3d 6a 81 b7 bd
       0.012277728 0.080606885 0.059074163 -0.08960231
0003c0 1d 5e 88 3d b3 8c 32 bc 2a c4 a5 3d 74 e7 14 bd
       0.06658576 -0.010897803 0.08094056 -0.036353543
0003d0 0e 44 b0 3d 47 95 c1 3d b5 cb b8 bc 71 4f d7 3d
       0.086067304 0.094523005 -0.022558073 0.10513199
0003e0 28 d1 84 3c f0 97 65 bd 68 1f 34 3e ac 3b 47 3d
       0.016213015 -0.056053102 0.17590106 0.048640892
0003f0 05 52 16 bd 80 72 b4 3a 9b 6e 87 bd 87 d6 97 3d
       -0.036699314 0.0013767034 -0.06612893 0.07413965

sequential_2/dense_14/MatMul;sequential_2/dense_14/MatMul f4 [64, 512]
000000 88 d7 b7 3c b0 c3 a8 bb d5 a1 44 bd 0c 5e 78 3d
       0.02244164 -0.005150281 -0.048005898 0.060636565
000010 e0 e7 3c 3c 67 3f 9c bd 66 ba b5 3d f0 89 f6 bb
       0.011529893 -0.076292805 0.08873443 -0.0075237677
000020 5c c4 8d bc f4 87 c7 3d 94 76 90 bd e8 5c a3 3c
       -0.017305546 0.09742728 -0.07053867 0.019941762
000030 68 95 22 3d 5e cf cb 3d 8a cf 9c 3d b8 68 96 3d
       0.039693266 0.099516615 0.076567724 0.07344192
000040 94 bc a3 3d c2 d8 cb 3d 9a 12 bb bd 9a 5d ca bd
       0.07994953 0.09953453 -0.09134407 -0.09881134
000050 0d e5 53 bd 58 fc c1 bd 10 37 52 3d b6 7a 62 bd
       -0.05173211 -0.09471959 0.051322043 -0.055292808
000060 80 64 1c 3b d4 a8 b8 3d 04 4d 90 3c 6c 64 ba bc
       0.0023863614 0.090165764 0.017614849 -0.022752963
000070 04 b1 7a 3d 68 89 d7 3c 70 8f 0a 3d 9c 99 e1 bc
       0.06120397 0.026310638 0.0338282 -0.027539067
000080 a0 7a 0b bd 84 d0 8b 3d a0 97 2a 3d 60 78 49 3d
       -0.03405249 0.068268806 0.041648507 0.049187064
000090 1a e2 80 3d 22 76 b3 bd b2 43 92 3d 84 93 85 bd
       0.062931255 -0.087627664 0.07141818 -0.06522277
0000a0 f4 48 c6 3d 0e 09 c1 bd 2e c4 a4 3d 5c 64 a1 bd
       0.096818835 -0.09425555 0.08045231 -0.0788047
0000b0 38 7c c4 3c 8c d1 f3 bc 79 cb 29 bd d4 70 40 bd
       0.023985013 -0.029763006 -0.041453812 -0.0469826
0000c0 70 f6 32 3d 00 9f 51 3c d0 b1 17 3c 52 e3 84 bd
       0.043692052 0.012794256 0.009258702 -0.064886704
0000d0 2a 24 7c bd 68 4c 85 3d b0 f6 3f 3c a8 53 d0 bd
       -0.061557926 0.06508714 0.01171653 -0.10172206
0000e0 36 4d b2 bd 68 e9 af 3c 5c 7b 03 bd dc f3 04 3d
       -0.08706133 0.021473601 -0.032100067 0.032459125
0000f0 d0 16 dc bc dc 2d c6 3d 08 cc 61 bd dc 8d 0a bd
       -0.026866347 0.09676716 -0.05512622 -0.033826694
000100 b8 60 c6 3c 80 a9 f6 3c 5d ca 64 bd 70 31 56 bd
       0.024216041 0.03011012 -0.05585705 -0.05229324
000110 f0 06 f7 bc 7a 2f 02 bd 84 d0 b8 bc 70 84 da 3c
       -0.030154675 -0.03178356 -0.022560365 0.02667448
000120 5c 30 3b 3d fa 83 45 bd c4 62 01 bd 6c fe 72 3d
       0.045700416 -0.048221566 -0.03158833 0.059324667
000130 6b 5e bc bd f0 2b 80 3c 17 3a 28 bd 90 3e c0 3d
       -0.09197696 0.015645951 -0.041071024 0.09386933
000140 80 82 c1 3a 46 0b 85 3d 57 fa cb bd f1 bd 5a bd
       0.0014763623 0.06496291 -0.09959858 -0.0534038
000150 11 02 97 bd ce 68 ae 3d 23 93 b1 bd 32 77 29 bd
       -0.07373441 0.08516084 -0.08670642 -0.04137344
000160 48 a7 a9 bd 10 4e 7b 3d ac a9 8d 3c 00 0b ef bb
       -0.082838595 0.061353743 0.01729282 -0.0072950125
000170 fb 90 8d bd e0 3b 5a bc 98 5c 71 3c 90 9a 42 3d
       -0.069124185 -0.013319939 0.014731549 0.047510684
000180 20 e8 33 bc f1 a7 6e bd 34 88 90 bc a0 f3 50 3d
       -0.010980636 -0.05826563 -0.017643072 0.05101359
000190 a8 0b 30 3d 08 85 89 bc 8a 86 9c bd 26 1c 88 3d
       0.042979866 -0.016787067 -0.07642849 0.06645994
0001a0 54 ed b5 bc 74 ba c5 bd 6c 8f b0 bc 87 53 a3 bd
       -0.022207893 -0.09654704 -0.021552764 -0.07974916
0001b0 18 cb ba 3d d8 02 ce bc e0 0b 84 3c 10 03 c8 3d
       0.09120768 -0.02514784 0.016118944 0.09766209
0001c0 31 df 4f bd 80 29 91 3d 56 b5 2e bd 9e 08 98 3d
       -0.05074996 0.070879936 -0.042653404 0.074235186
0001d0 32 6e 26 bd 60 bf 3d 3d 9c 82 81 3d 4f de cb bd
       -0.040632434 0.046325088 0.0632374 -0.099545114
0001e0 a0 a7 85 bd 40 9d 0c 3d 75 53 8f bd 0e 6b 16 bd
       -0.065261126 0.034329653 -0.0699834 -0.03672319
0001f0 92 03 0a bd 04 2e ad 3d 80 af 59 bd 28 68 ac bd
       -0.03369481 0.084560424 -0.053145885 -0.08418304
000200 9c 57 4e 3d f4 9b 48 bd e0 a8 8e bd dd 3c c5 bd
       0.05037652 -0.048976853 -0.06965804 -0.096307494
000210 fc b0 7b 3d 18 2a 1d 3c f8 82 d0 bc 2a 01 bf bd
       0.061448082 0.009592555 -0.025453076 -0.09326394
000220 ea 85 8b bd b4 34 85 3d 68 a0 36 3c 98 35 96 3d
       -0.068126515 0.06504193 0.011146642 0.07334441
000230 e0 2c 6b 3c a0 da 5f 3b a8 23 9b bd d4 bf 00 bd
       0.014353961 0.003415741 -0.0757516 -0.03143294
000240 8c 47 a3 3d f0 3d a1 3c b0 43 a1 bd 20 92 39 bc
       0.07972631 0.019682854 -0.078742385 -0.011326343
000250 3c 1d bc 3d 83 5f 62 bd d0 e4 0a 3d e4 f6 7f 3d
       0.091852635 -0.05526687 0.03390962 0.062491313
000260 40 53 bc 3b 0c e9 27 3d a0 1f 53 bb 90 93 46 bd
       0.005747229 0.040993735 -0.0032214895 -0.04848057
000270 e8 55 88 bc 6e 61 80 3d 47 97 26 bd 7d 93 c6 bd
       -0.016642526 0.06268583 -0.040671613 -0.096961
000280 cc 7d 87 bc 33 49 b3 bd 18 3b 87 3c 01 6a 56 bd
       -0.016539477 -0.08754196 0.01650767 -0.052347187
000290 ec 5f 6c 3d 1d 1c c6 bd a0 a3 fc 3c 28 d2 2b 3d
       0.057708666 -0.09673331 0.030839741 0.041948467
0002a0 a0 be 27 bc dc 8b aa bd 70 02 67 bc a0 9a b8 3c
       -0.01023832 -0.08327457 -0.014099702 0.022534668
0002b0 fa 33 b1 bd 6c d6 80 3d 06 10 aa 3d 70 d4 36 3c
       -0.08652492 0.06290898 0.083038375 0.0111590475
0002c0 c2 c6 96 3d bc 8e 35 3d 68 02 fa bc 70 b4 ad bb
       0.07362129 0.044325575 -0.030518726 -0.005301051
0002d0 bd 2e 78 bd 0e 0d c8 bd 12 61 bc 3d e8 e2 4a bd
       -0.060591448 -0.09768115 0.09198202 -0.0495328
0002e0 8f a6 b4 bd 44 8f 6c 3d 65 b0 be bd 6c bf ab 3d
       -0.08820831 0.057753816 -0.09310988 0.0838612
0002f0 5a 08 8b bd 08 03 0b bd 8a 62 96 3d a0 fd a3 3b
       -0.06788702 -0.033938438 0.073430136 0.0050045997
000300 9e 70 9e 3d c8 c9 08 3d f0 81 c8 3c 60 36 23 3c
       0.07736324 0.03339556 0.024476022 0.0099616945
000310 80 00 fb bc e0 a9 80 3c 46 1a c2 bd 00 8d 40 3d
       -0.030639887 0.015706003 -0.094776675 0.047009468
000320 2c 51 d9 bc 18 00 38 3d 8d 5a b8 bd fa 44 0e bd
       -0.026527964 0.044921964 -0.09001646 -0.03473375
000330 2a e7 03 bd 00 7d 76 3c 5c 0f 53 3d c9 1a d0 bd
       -0.032202877 0.015044451 0.05152832 -0.10161359
000340 24 2c 1d 3d 54 62 8b 3c 4e 58 8f 3d 90 bf b4 3d
       0.038372174 0.01701466 0.06999265 0.088256
000350 7a 24 1e bd c8 cd 09 bd 48 c3 6d bc aa b0 5d bd
       -0.038609006 -0.033643514 -0.014511891 -0.054123558
000360 0a ec 94 bd 64 ce 4a 3d e2 93 38 bd 59 19 93 bd
       -0.072715834 0.049513236 -0.045062907 -0.07182569
000370 f4 37 b5 3c e0 8d df bc 80 74 3e ba a6 8d a0 3d
       0.022121407 -0.027289331 -0.00072652847 0.07839517
000380 74 a0 7a 3d 90 33 91 3c 10 bc 15 bc 1d 9d 4d bd
       0.061188176 0.017724782 -0.009139076 -0.050198663
000390 2b 68 69 bd 46 f9 c5 3d e0 df ad bd a0 4f 3d 3b
       -0.056984108 0.09666686 -0.084899664 0.0028886572
0003a0 66 4a 9c 3d 49 e8 d0 bd ae 5d bc 3d e4 4b 8c 3d
       0.07631378 -0.10200555 0.091975555 0.068504125
0003b0 00 dd f7 3c 80 48 c9 bb 04 15 78 3d 6a 21 88 3d
       0.030256748 -0.006142676 0.060566917 0.06646998
0003c0 e1 e3 84 bd 43 0f ba bd 71 b0 24 bd b0 a7 12 bd
       -0.06488777 -0.09084942 -0.04020733 -0.03580445
0003d0 29 1d 66 bd 77 e6 3d bd a6 f5 2a bd 37 e2 79 bd
       -0.056180153 -0.046362367 -0.041738175 -0.06100675
0003e0 dc 98 b8 bd 98 a5 07 3c d8 e3 0b bd 4a 63 aa bd
       -0.090135306 0.008279227 -0.034152836 -0.08319719
0003f0 a8 4d 7b bd 0b ac be bd d0 06 2e 3c 7c 9a 3b bd
       -0.061353356 -0.09310158 0.010621741 -0.045801625

sequential_2/dense_15/MatMul;sequential_2/dense_15/MatMul f4 [32, 64]
000000 f0 62 4b 3d 34 4d 23 3d f7 43 44 bd cf dc ac bc
       0.0496549 0.03986855 -0.04791638 -0.021101383
000010 98 92 f4 bd 9f 04 aa 3d f0 75 56 bc 30 49 0f 3d
       -0.11942023 0.08301663 -0.013089642 0.034981906
000020 ce f8 77 3e de 20 3e 3c 76 52 94 3d ea 60 7d 3e
       0.24216005 0.011604516 0.07242291 0.24744001
000030 2c fc cb 3d be 24 63 3d 33 28 f4 bd 06 3c 97 3d
       0.09960207 0.055454962 -0.1192173 0.073844954
000040 dc 2b 4a bd 06 74 8f 3d c0 e6 2b 3d cc 47 12 3e
       -0.049358234 0.070045516 0.041968107 0.14285201
000050 37 81 5a bd 94 ae 63 3c 66 d7 69 be 2e 92 79 3d
       -0.053345885 0.013896603 -0.22836074 0.060930423
000060 80 f4 ba 3b 0e ba a8 bd 23 0e fa 3d ef 8b 61 be
       0.005705416 -0.08238612 0.122097276 -0.22026037
000070 a9 0b 47 3e 3f b1 08 bd e0 ef ed 3c 26 bb 3b bd
       0.19438042 -0.03337216 0.029045045 -0.045832776
000080 11 89 90 3d 00 04 6c 3a 3a 2d d5 3c ac e4 29 be
       0.07057393 0.00090032816 0.026022542 -0.16591138
000090 41 1d 39 bd 37 d1 b3 3d 08 d6 10 be cb 03 4e 3d
       -0.045193914 0.08780139 -0.14144146 0.050296586
0000a0 c5 23 9d bd 98 04 4c 3d d9 6f 1b 3e 56 d6 13 3e
       -0.07672838 0.04980907 0.15179385 0.14437231
0000b0 93 e9 11 3e 7c 4a 58 bc 5e 87 06 be b6 91 07 be
       0.14249258 -0.013201352 -0.13137576 -0.13239178
0000c0 14 68 b5 3d 75 85 0d be d2 2f 0c be 36 d0 fd 3d
       0.08857742 -0.13820441 -0.13690117 0.12393229
0000d0 6f 16 6b bd a1 52 03 3e 54 4e 22 be 6e 8c 3e 3d
       -0.05739444 0.12824489 -0.15850192 0.046520643
0000e0 3f d6 c4 bd ac 19 5e be c1 2f 02 3e 0e 16 6e 3e
       -0.09611177 -0.2168948 0.12713529 0.232506
0000f0 d9 24 9f 3d f8 6f d4 bd ed b2 0d 3e f9 d0 64 3d
       0.077707 -0.10372919 0.13837786 0.055863354
000100 e8 a4 3c 3e a5 13 21 3e 85 76 5b 3d 84 54 48 3e
       0.18422282 0.1573015 0.053579826 0.1956349
000110 70 8d 05 3d 69 52 92 3c 08 2d bb bd 9c 61 14 3e
       0.03260559 0.017861562 -0.091394484 0.1449036
000120 bc ec 41 3d aa ef 93 bd cc 47 24 3e 95 c9 e2 bd
       0.047344908 -0.07223447 0.16043013 -0.11073605
000130 b9 c0 35 3e 22 80 7f bd 93 31 6c 3e b0 52 c3 bc
       0.17749299 -0.062378056 0.23065786 -0.02384314
000140 df 04 1b 3e 4b 09 8b bd fe 70 ac bd 68 13 88 3d
       0.15138577 -0.06788882 -0.08419989 0.066443264
000150 b5 57 45 3e b7 7b e5 bd 81 79 2c 3e eb ee b5 3d
       0.19271739 -0.11205237 0.16843225 0.088834606
000160 7c ef 3a be 58 0d 53 bd be 72 6d be 28 b5 55 3e
       -0.18255419 -0.051526397 -0.23188302 0.20869887
000170 8d 25 04 bb 1b 93 0e bc a0 2e d1 3c e6 b3 c8 3c
       -0.0020163984 -0.008702065 0.025534928 0.024499845
000180 60 c2 0d be 0c 3f 0e be 87 11 51 be 37 94 67 bd
       -0.1384368 -0.13891238 -0.20416842 -0.056537833
000190 b5 9a 0f be ec b6 21 be c0 00 7e bc 79 e6 00 3d
       -0.1402386 -0.15792435 -0.0155031085 0.031469796
0001a0 9c fe 36 3e 24 92 dd bb 5e b3 d5 bb 9d 57 33 be
       0.17870563 -0.006761806 -0.0065216264 -0.1751389
0001b0 d8 57 56 3e 23 67 9f 3c 50 b4 dd 3d ff 3d f4 3c
       0.20931947 0.01945836 0.108254075 0.029814718
0001c0 3c 01 13 be db f1 16 3e 3e cc 4e 3e e2 a0 cc 3d
       -0.1435594 0.14740698 0.201951 0.099916235
0001d0 8f 6b 41 3e 68 77 d6 bd 00 3d ee bb 38 86 57 be
       0.18888687 -0.10471994 -0.0072704554 -0.21047294
0001e0 9c 51 20 3e 44 89 5d 3c 6f 08 f9 bd f7 7d 28 3d
       0.15656132 0.013521496 -0.12159812 0.041135754
0001f0 87 d7 52 bd 08 74 f9 bd 39 0b 02 3d 64 a7 c0 bd
       -0.051475074 -0.12180334 0.031748984 -0.09406927
000200 98 d7 2a 3e d0 5c 5d be 40 cd 5e 3e 04 94 48 be
       0.16683805 -0.21617436 0.21757984 -0.19587713
000210 68 22 8d bd 00 26 da 3c f0 6d 8c bd 98 d5 ab 3d
       -0.06891328 0.026629448 -0.068569064 0.08390349
000220 78 0c 1c be b4 d4 11 be 74 af 54 be 1c ee 57 3e
       -0.15239131 -0.14241296 -0.20770055 0.21086925
000230 20 65 26 be 64 82 44 be 50 b1 e4 3d 80 e5 63 bc
       -0.16249514 -0.19190365 0.11166632 -0.0139096975
000240 28 66 11 3e f8 45 cc 3d bc c2 13 be 80 0d 96 3c
       0.14199126 0.09974283 -0.14429754 0.018316984
000250 c8 1f 56 3e f0 18 87 bd 2c 05 3a be 00 1f a2 3d
       0.20910561 -0.06596553 -0.18166035 0.07916069
000260 18 60 27 3e d0 e8 bd bd e0 f3 53 bd 54 4a 19 be
       0.1634525 -0.09272921 -0.05174625 -0.1496976
000270 c0 b7 5c 3c c0 e5 43 3d 70 ce 5a 3e c0 7c 15 bc
       0.013471544 0.04782653 0.21367812 -0.009123981
000280 c0 63 26 be 40 94 0a 3c dc 43 50 3e 30 c7 33 bd
       -0.16248989 0.008458197 0.20338386 -0.043891132
000290 f4 67 64 3e c8 01 c6 bd 4c 86 00 be e0 d3 7e be
       0.2230528 -0.096683085 -0.1255123 -0.24885511
0002a0 7c 13 78 be 64 ed 1b be 00 a6 8d 3d c0 1b ec bd
       -0.24226183 -0.15227276 0.069164276 -0.115287304
0002b0 00 4e 0c 3d 40 93 7b bc 44 f0 17 3e 30 4a 23 be
       0.034254074 -0.015354931 0.14837748 -0.15946269
0002c0 f0 fc 44 bd 14 9e 59 be 60 5b 6f bd 0c d9 78 be
       -0.048092782 -0.21251708 -0.05843675 -0.24301547
0002d0 d8 17 73 3e 58 d8 a1 bd c0 66 bd 3c ac 7a 23 3e
       0.23739564 -0.079025924 0.023120284 0.15964764
0002e0 20 d9 dc bc a0 f2 42 3e a0 30 39 3d b4 2d 4d 3e
       -0.026959002 0.19037867 0.045212388 0.20036966
0002f0 78 fc d7 bd d8 ff c1 3d e0 a5 2c 3d 24 e9 2f 3e
       -0.105462015 0.094726264 0.04215038 0.1717878
000300 d8 58 45 be 31 e7 1d 3e 98 d9 e6 bd d0 45 1d 3d
       -0.19272172 0.15420224 -0.112719715 0.038396657
000310 30 21 7a 3d c0 ea d5 bd 40 ac 82 bd 04 f1 7a 3e
       0.061066806 -0.10445166 -0.0638051 0.24506003
000320 38 2f 58 be d5 ef e4 bd f8 83 ea bd cc e3 2c be
       -0.21111763 -0.11178557 -0.11450952 -0.16883773
000330 b2 46 86 3c 66 f7 80 bd a8 23 68 3e 3b f8 ee bc
       0.016391132 -0.062971875 0.22669852 -0.0291711
000340 38 9e 39 bc 84 3b 7a be 56 6b 4b bd fc a8 39 be
       -0.011329226 -0.24436766 -0.04966291 -0.18130869
000350 35 ff 4c 3e ce 35 e5 bd 1f c9 58 be 63 8d bf 3d
       0.20019229 -0.11191903 -0.21170472 0.09353139
000360 80 a6 05 bc 36 2c 21 3e ef 3f 64 3e e3 a3 31 be
       -0.0081573725 0.15739521 0.22290014 -0.17347674
000370 c6 b3 1e 3e 68 7c 11 3e 1a cd a5 3d bf 04 66 3e
       0.15498266 0.14207613 0.08095761 0.22462748
000380 b8 42 a4 bd 50 58 56 3e c8 19 54 be 2c b4 90 3c
       -0.08020538 0.20932126 -0.2071296 0.017664038
000390 70 2a 7e 3d f4 6f 4d be 00 26 9b bc 00 55 6f 3c
       0.06205219 -0.20062238 -0.018939018 0.014607668
0003a0 70 c1 69 3e 95 9c 2f bd 94 38 5b 3e 3c 60 2a 3d
       0.22827697 -0.042873938 0.21408302 0.041595683
0003b0 74 34 20 be 33 99 b2 3b 00 be 9b 3c 03 31 01 be
       -0.1564501 0.0054503917 0.019011497 -0.12616353
0003c0 50 4b 37 be c8 5d e3 3d 38 7f d8 bd 31 a3 2b 3e
       -0.17899823 0.11101872 -0.1057114 0.16761471
0003d0 63 f5 52 be 80 17 9c bd 34 ee 68 be cc aa 1e be
       -0.2060142 -0.0762167 -0.22747117 -0.15494841
0003e0 f0 d7 64 3d 74 55 38 bd de 29 2d 3e 6e 94 59 be
       0.055869997 -0.04500337 0.16910502 -0.21248028
0003f0 11 2a 5c be a0 df ab bc 80 bb 24 3d 96 4e 13 be
       -0.21500422 -0.020980656 0.040217876 -0.14385447
